ruv-swarm/models/tcn-pattern-detector/optimized_tcn_inference.pt (torch, 820839 bytes, 81 tensors)

cpu f4 [64]
0	0x00000000	0.0
1	0x00000000	0.0
2	0x00000000	0.0
3	0x00000000	0.0
4	0x00000000	0.0
5	0x00000000	0.0
6	0x00000000	0.0
7	0x00000000	0.0
8	0x00000000	0.0
9	0x00000000	0.0
10	0x00000000	0.0
11	0x00000000	0.0
12	0x00000000	0.0
13	0x00000000	0.0
14	0x00000000	0.0
15	0x00000000	0.0
16	0x00000000	0.0
17	0x00000000	0.0
18	0x00000000	0.0
19	0x00000000	0.0
20	0x00000000	0.0
21	0x00000000	0.0
22	0x00000000	0.0
23	0x00000000	0.0
24	0x00000000	0.0
25	0x00000000	0.0
26	0x00000000	0.0
27	0x00000000	0.0
28	0x00000000	0.0
29	0x00000000	0.0
30	0x00000000	0.0
31	0x00000000	0.0
32	0x00000000	0.0
33	0x00000000	0.0
34	0x00000000	0.0
35	0x00000000	0.0
36	0x00000000	0.0
37	0x00000000	0.0
38	0x00000000	0.0
39	0x00000000	0.0
40	0x00000000	0.0
41	0x00000000	0.0
42	0x00000000	0.0
43	0x00000000	0.0
44	0x00000000	0.0
45	0x00000000	0.0
46	0x00000000	0.0
47	0x00000000	0.0
48	0x00000000	0.0
49	0x00000000	0.0
50	0x00000000	0.0
51	0x00000000	0.0
52	0x00000000	0.0
53	0x00000000	0.0
54	0x00000000	0.0
55	0x00000000	0.0
56	0x00000000	0.0
57	0x00000000	0.0
58	0x00000000	0.0
59	0x00000000	0.0
60	0x00000000	0.0
61	0x00000000	0.0
62	0x00000000	0.0
63	0x00000000	0.0

tcn_blocks.0.conv1.weight f4 [32, 64, 3]
0	0x3e9c7a73	0.3056217
1	0xbd905033	-0.07046547
2	0xbde9dd30	-0.11419141
3	0xbe07192d	-0.13193198
4	0x3d5730ec	0.05253689
5	0x3e968755	0.29400125
6	0x3e774a02	0.24149325
7	0xbd260e8b	-0.040541213
8	0x3e51a219	0.20471992
9	0x3dcd9b5f	0.100394
10	0x3c0c1707	0.008550412
11	0xbd2f859b	-0.042852025
12	0x3d70bc64	0.058773413
13	0xbe54a7ab	-0.20767085
14	0xbda6d7f2	-0.08146657
15	0x3e06837c	0.13136095
16	0x3d9a3a8c	0.07530698
17	0x3cae8fc9	0.021308796
18	0x3ae8f662	0.0017773623
19	0xbd93e4ec	-0.07221398
20	0xbdd282c5	-0.102788486
21	0xbd12fee8	-0.03588763
22	0xbe328f50	-0.17437482
23	0x3e394be3	0.18095355
24	0x3e70df10	0.23522592
25	0x3d213db5	0.03936549
26	0x3c885d27	0.016645981
27	0x3d3df9c3	0.04638077
28	0x3e36fb0e	0.17869207
29	0x3e4aca14	0.19803649
30	0x3d10f2ae	0.035387687
31	0x3cfd9d2d	0.030958736
32	0xbb4e2618	-0.003145581
33	0x3e5852d2	0.21125343
34	0x3d4d8ea2	0.050184853
35	0xbe2b0273	-0.16700153
36	0xbe118d47	-0.1421405
37	0x3dadde31	0.08489645
38	0x3daf14ff	0.085489266
39	0x3e3dd5ef	0.1853864
40	0xbdff5000	-0.12466431
41	0xbe8ad200	-0.27113342
42	0xbdb94a0f	-0.09047329
43	0x3de42fd8	0.11141938
44	0xbe0ebc36	-0.13938984
45	0x3d26135b	0.040545803
46	0xbddddbe4	-0.108329564
47	0x3dc7d1af	0.09756791
48	0x3dcabc54	0.09899202
49	0x3cb7a947	0.022419585
50	0x3e2076ab	0.15670268
51	0x3d831dab	0.06402143
52	0xbd14f6a2	-0.03636802
53	0x3ea4c897	0.32184288
54	0x3e707972	0.23483828
55	0xbd923702	-0.07139398
56	0x3e4c6059	0.19958629
57	0x3da15a87	0.07878595
58	0x3dff2634	0.124584585
59	0x3e2b8243	0.1674891
60	0xbe1f25b1	-0.15541722
61	0x3e584d6a	0.21123281
62	0xbdfccab8	-0.12343353
63	0xbe57f10d	-0.21088047
64	0x3b3bd34f	0.0028659885
65	0xbcbb0100	-0.022827625
66	0xbded3f1c	-0.11584303
67	0x3d5b2fcf	0.05351239
68	0xbd59d8e2	-0.05318535
69	0x3d92dc8e	0.07170974
70	0x3b264e84	0.0025376389
71	0xbe571a68	-0.21006167
72	0xbdfebf8e	-0.1243888
73	0xbd659b78	-0.05605647
74	0x3da16dcf	0.078822725
75	0xbe094d11	-0.13408305
76	0x3ea85992	0.32880837
77	0x3d9d670c	0.0768567
78	0x3d0fa4fe	0.03506946
79	0xbe378881	-0.17923166
80	0xbd9fd245	-0.078037776
81	0xbe2d4eac	-0.16924542
82	0xbdf31225	-0.11868695
83	0x3c9bea68	0.019032672
84	0x3b21de5e	0.0024699192
85	0xbe770c12	-0.24125698
86	0x3d34ad89	0.04411081
87	0xbb9ffc85	-0.0048823976
88	0x3da1453e	0.07874535
89	0xbe4b038e	-0.19825575
90	0x3e05ed96	0.13078913
91	0xbdac4349	-0.08411271
92	0x3dbcbf7a	0.09216209
93	0x3d4fc61b	0.050726037
94	0xbcadef45	-0.021232257
95	0xbd9384b0	-0.072030425
96	0xbed1abd8	-0.4095142
97	0xbcc6f5d7	-0.024287147
98	0x3c265aa1	0.010153444
99	0xbd4ae705	-0.049536724
100	0x3d513e7e	0.051084988
101	0xbd12bab9	-0.035822604
102	0xbdba18d4	-0.09086767
103	0x3cfa6c84	0.030569322
104	0xbe4d11df	-0.20026349
105	0xbd427d4e	-0.04748278
106	0xbe0975ee	-0.13423893
107	0xbde0db28	-0.10979301
108	0x3bb0fb41	0.0054010455
109	0x3d9d6c4e	0.07686673
110	0xbeb7b910	-0.3588338
111	0xbe68abe8	-0.22721827
112	0xbdb8aa65	-0.09016875
113	0x3dfa24b6	0.12214033
114	0xbe388d83	-0.18022732
115	0x3e066aba	0.1312665
116	0xbdf1142d	-0.11771426
117	0xbe3d2f6e	-0.18475124
118	0x3c30c626	0.01078943
119	0xbdc21b6c	-0.094778866
120	0x3d0fda6a	0.035120405
121	0x3ea176b2	0.3153587
122	0x3e2245b0	0.15846896
123	0x3e27a459	0.16371287
124	0xbeade06e	-0.3396029
125	0x3e01906c	0.12652749
126	0x3db1054a	0.08643587
127	0xbc9d179c	-0.019176297
128	0xbee4d38e	-0.44692653
129	0xbe516ba3	-0.20451216
130	0x3dd54e0e	0.104152784
131	0xbe83846b	-0.25686964
132	0x3e8f0dc0	0.27940178
133	0xbdb3222e	-0.08746754
134	0x3db23b40	0.08702707
135	0x3d35fe44	0.04443194
136	0xbcba6356	-0.022752445
137	0xbe183f4d	-0.14867897
138	0xbe51eb17	-0.20499836
139	0x3e0a73ed	0.13520785
140	0x3e4d1fd4	0.20031673
141	0xbe49187b	-0.19638245
142	0x3d39d664	0.045370474
143	0x3de1aa74	0.110188395
144	0x3de3b5d8	0.11118668
145	0xbe21bca7	-0.15794621
146	0xbc3c0455	-0.011475642
147	0xbdaf0bc0	-0.08547163
148	0x3d2e9c46	0.042629503
149	0x3e2fe423	0.17176871
150	0x3eaef14a	0.34168464
151	0xbe6c12da	-0.23054066
152	0x3e903ca1	0.28171256
153	0xbe0b58c9	-0.13608088
154	0xbd7a6656	-0.06113275
155	0x3e1ee14b	0.1551563
156	0xbe79b409	-0.24385084
157	0x3ddd0524	0.10791996
158	0x3d2e3937	0.042535033
159	0x3de5ba64	0.11217192
160	0x3d38b726	0.04509654
161	0xbdc845a9	-0.097789116
162	0x3e105bf1	0.14097573
163	0x3da72340	0.0816102
164	0xbe122e21	-0.1427541
165	0x3dab45be	0.08362912
166	0x3ce5f12d	0.028069103
167	0x3db77dc7	0.08959537
168	0x3ebb87bf	0.36627004
169	0xbe5db37d	-0.216505
170	0xbd6df263	-0.058092486
171	0x3e1dd0c0	0.15411663
172	0x39bd249e	0.0003607617
173	0xbe55a003	-0.20861821
174	0x3da55121	0.08072115
175	0xbe624008	-0.22094738
176	0xbdd96561	-0.106150396
177	0x3e0b56c6	0.1360732
178	0x3e04631e	0.12928435
179	0x3bb0987c	0.0053892713
180	0xbd70b2fd	-0.058764447
181	0x3e20a634	0.15688401
182	0x3e01b7b5	0.12667735
183	0xbd0898e0	-0.033348918
184	0xbc1c10a7	-0.009525455
185	0x3d9060b6	0.07049696
186	0xbeda7af9	-0.42671946
187	0x3e7be1e9	0.24597897
188	0xbc328a4c	-0.01089723
189	0xbe5a43f5	-0.21314986
190	0x3d4cacb2	0.049969383
191	0xbea0ba50	-0.31392145
192	0xbe44e404	-0.19227606
193	0x3e828c4a	0.25497657
194	0x3d5c24de	0.053746097
195	0x3ddc8439	0.10767407
196	0x3aef7fa9	0.0018272299
197	0x3cc2f69f	0.023799239
198	0x3e3e2add	0.18571039
199	0x3dea796f	0.11448943
200	0x3d4bf74c	0.049796388
201	0xbdb2f260	-0.087376356
202	0xbdc1c3c0	-0.094611645
203	0x3e143701	0.14474107
204	0xbd9f3718	-0.0777418
205	0x3eab232f	0.3342528
206	0xbd825d4b	-0.063654505
207	0x3e276089	0.16345419
208	0x3cc2ec61	0.023794355
209	0x3d3c5174	0.045976117
210	0xbe88ce77	-0.2672002
211	0xbdd96a3c	-0.10615966
212	0xbd90892e	-0.07057415
213	0x3d986ea8	0.07442981
214	0x3db7194d	0.089403726
215	0xbeee1c88	-0.46506143
216	0x3de845fb	0.11341473
217	0x3dcdd9e3	0.10051324
218	0xbac20478	-0.0014802357
219	0xbe450274	-0.19239217
220	0x3d295bdf	0.04134738
221	0xbd9ec5e5	-0.07752589
222	0x3dd830fa	0.105562165
223	0x3dd34e41	0.1031766
224	0x3def6731	0.11689604
225	0xbe5b0dd6	-0.21391997
226	0xbd2b86d1	-0.041876618
227	0xbda4c435	-0.08045236
228	0xbd84870a	-0.06471069
229	0xbd817cd7	-0.063226394
230	0xbd11f550	-0.03563434
231	0x3ddc2034	0.1074833
232	0x3ce39390	0.027780324
233	0xbb1bf049	-0.0023794344
234	0xbe62fac2	-0.22165969
235	0x3da68f72	0.08132829
236	0x3cc56237	0.024094684
237	0xbe0c2f37	-0.13689886
238	0xbdcdb7c5	-0.10044817
239	0x3e336295	0.17518075
240	0x3d1362d3	0.035982918
241	0x3dec7f47	0.11547714
242	0x3cda4661	0.026644887
243	0xbd05f1af	-0.03270119
244	0x3d17acd3	0.037030052
245	0x3c9ca20f	0.019120244
246	0xbe1b2d59	-0.15154018
247	0xbd8d6829	-0.069046326
248	0x3dd7ff91	0.10546792
249	0x3d75cd4d	0.060010243
250	0xbc25dcff	-0.01012349
251	0xbe1cb51b	-0.15303461
252	0xbd4d945f	-0.050190326
253	0x3c442395	0.011971374
254	0x3e28a6c1	0.16469862
255	0x3e73e64a	0.23818317

tcn_blocks.0.conv1.bias f4 [32]
0	0x00000000	0.0
1	0x00000000	0.0
2	0x00000000	0.0
3	0x00000000	0.0
4	0x00000000	0.0
5	0x00000000	0.0
6	0x00000000	0.0
7	0x00000000	0.0
8	0x00000000	0.0
9	0x00000000	0.0
10	0x00000000	0.0
11	0x00000000	0.0
12	0x00000000	0.0
13	0x00000000	0.0
14	0x00000000	0.0
15	0x00000000	0.0
16	0x00000000	0.0
17	0x00000000	0.0
18	0x00000000	0.0
19	0x00000000	0.0
20	0x00000000	0.0
21	0x00000000	0.0
22	0x00000000	0.0
23	0x00000000	0.0
24	0x00000000	0.0
25	0x00000000	0.0
26	0x00000000	0.0
27	0x00000000	0.0
28	0x00000000	0.0
29	0x00000000	0.0
30	0x00000000	0.0
31	0x00000000	0.0

tcn_blocks.0.bn1.weight f4 [32]
0	0x3f800000	1.0
1	0x3f800000	1.0
2	0x3f800000	1.0
3	0x3f800000	1.0
4	0x3f800000	1.0
5	0x3f800000	1.0
6	0x3f800000	1.0
7	0x3f800000	1.0
8	0x3f800000	1.0
9	0x3f800000	1.0
10	0x3f800000	1.0
11	0x3f800000	1.0
12	0x3f800000	1.0
13	0x3f800000	1.0
14	0x3f800000	1.0
15	0x3f800000	1.0
16	0x3f800000	1.0
17	0x3f800000	1.0
18	0x3f800000	1.0
19	0x3f800000	1.0
20	0x3f800000	1.0
21	0x3f800000	1.0
22	0x3f800000	1.0
23	0x3f800000	1.0
24	0x3f800000	1.0
25	0x3f800000	1.0
26	0x3f800000	1.0
27	0x3f800000	1.0
28	0x3f800000	1.0
29	0x3f800000	1.0
30	0x3f800000	1.0
31	0x3f800000	1.0

tcn_blocks.0.bn1.bias f4 [32]
0	0x00000000	0.0
1	0x00000000	0.0
2	0x00000000	0.0
3	0x00000000	0.0
4	0x00000000	0.0
5	0x00000000	0.0
6	0x00000000	0.0
7	0x00000000	0.0
8	0x00000000	0.0
9	0x00000000	0.0
10	0x00000000	0.0
11	0x00000000	0.0
12	0x00000000	0.0
13	0x00000000	0.0
14	0x00000000	0.0
15	0x00000000	0.0
16	0x00000000	0.0
17	0x00000000	0.0
18	0x00000000	0.0
19	0x00000000	0.0
20	0x00000000	0.0
21	0x00000000	0.0
22	0x00000000	0.0
23	0x00000000	0.0
24	0x00000000	0.0
25	0x00000000	0.0
26	0x00000000	0.0
27	0x00000000	0.0
28	0x00000000	0.0
29	0x00000000	0.0
30	0x00000000	0.0
31	0x00000000	0.0

tcn_blocks.0.bn1.running_mean f4 [32]
0	0x00000000	0.0
1	0x00000000	0.0
2	0x00000000	0.0
3	0x00000000	0.0
4	0x00000000	0.0
5	0x00000000	0.0
6	0x00000000	0.0
7	0x00000000	0.0
8	0x00000000	0.0
9	0x00000000	0.0
10	0x00000000	0.0
11	0x00000000	0.0
12	0x00000000	0.0
13	0x00000000	0.0
14	0x00000000	0.0
15	0x00000000	0.0
16	0x00000000	0.0
17	0x00000000	0.0
18	0x00000000	0.0
19	0x00000000	0.0
20	0x00000000	0.0
21	0x00000000	0.0
22	0x00000000	0.0
23	0x00000000	0.0
24	0x00000000	0.0
25	0x00000000	0.0
26	0x00000000	0.0
27	0x00000000	0.0
28	0x00000000	0.0
29	0x00000000	0.0
30	0x00000000	0.0
31	0x00000000	0.0

tcn_blocks.0.bn1.running_var f4 [32]
0	0x3f800000	1.0
1	0x3f800000	1.0
2	0x3f800000	1.0
3	0x3f800000	1.0
4	0x3f800000	1.0
5	0x3f800000	1.0
6	0x3f800000	1.0
7	0x3f800000	1.0
8	0x3f800000	1.0
9	0x3f800000	1.0
10	0x3f800000	1.0
11	0x3f800000	1.0
12	0x3f800000	1.0
13	0x3f800000	1.0
14	0x3f800000	1.0
15	0x3f800000	1.0
16	0x3f800000	1.0
17	0x3f800000	1.0
18	0x3f800000	1.0
19	0x3f800000	1.0
20	0x3f800000	1.0
21	0x3f800000	1.0
22	0x3f800000	1.0
23	0x3f800000	1.0
24	0x3f800000	1.0
25	0x3f800000	1.0
26	0x3f800000	1.0
27	0x3f800000	1.0
28	0x3f800000	1.0
29	0x3f800000	1.0
30	0x3f800000	1.0
31	0x3f800000	1.0

tcn_blocks.0.conv2.weight f4 [32, 32, 3]
0	0xbddfe6fe	-0.1093273
1	0xbea5a87a	-0.323551
2	0xbe61783c	-0.22018522
3	0x3e29cee0	0.16582823
4	0xbd548507	-0.051884677
5	0xbe6266f6	-0.22109589
6	0x3e6d8013	0.23193388
7	0x3e358faf	0.17730592
8	0x3bde2a1a	0.0067799212
9	0x3e5e474f	0.2170689
10	0xbe7c91ff	-0.24665068
11	0xbe06073f	-0.13088702
12	0x3dcabc5d	0.09899209
13	0xbe25656e	-0.16151974
14	0x3d1d60ce	0.0384224
15	0x3ca784de	0.020449098
16	0xbe19cc2d	-0.15019293
17	0x3d64659b	0.05576096
18	0xbe01a08a	-0.12658897
19	0xbe3cad0e	-0.1842539
20	0x3db72bf9	0.08943934
21	0x3d0c4f0e	0.03425508
22	0x3d9c3112	0.07626547
23	0x3d8907b9	0.06690926
24	0x3e541a21	0.20713092
25	0xbe6d6164	-0.23181683
26	0xbdc69cd8	-0.09697884
27	0xbd219fd6	-0.039459072
28	0x3e388af6	0.1802176
29	0xbcae07f8	-0.021244034
30	0xbce6a63d	-0.02815544
31	0xbdffcb18	-0.12489909
32	0xbd9bb1f5	-0.07602302
33	0xbdbf7e9c	-0.09350321
34	0x3d248ef7	0.040175404
35	0x3e34f443	0.17671303
36	0xbcf229ed	-0.029561007
37	0xbd86791e	-0.0656607
38	0x3c2bc257	0.010483346
39	0xbe5a23b4	-0.21302682
40	0x3df0d8ed	0.11760125
41	0x3da2adf5	0.07943336
42	0xbc87e0fd	-0.016586775
43	0xbd604e69	-0.054762278
44	0x3d7f6a76	0.06235739
45	0xbdc71795	-0.09721295
46	0xbaea252b	-0.001786386
47	0x3e48f825	0.1962591
48	0x3daac3f4	0.08338156
49	0x3cd0d83d	0.025493735
50	0x3e252820	0.16128588
51	0xbda4a6bd	-0.08039615
52	0xbd34513f	-0.044022795
53	0xbcb25aa7	-0.021771742
54	0xbc51c286	-0.012802726
55	0x3d6ef83b	0.0583422
56	0x3e159807	0.14608775
57	0xbe787a85	-0.24265487
58	0xbe725fdd	-0.23669381
59	0xbc77f91c	-0.015135076
60	0x3e18e1ae	0.1492984
61	0xbe00132f	-0.12507318
62	0xbd272607	-0.04080775
63	0x3ca9e5d2	0.02073947
64	0x3e3d306c	0.18475503
65	0xbde7db0d	-0.113210775
66	0xbddbebb8	-0.10738319
67	0xbd8c4f40	-0.06851053
68	0x3c1e35fe	0.009656427
69	0xbe5460cf	-0.20740055
70	0xbe0933fc	-0.13398737
71	0x3e1b14a9	0.151446
72	0x3dd53fb5	0.10412542
73	0x3d8c552c	0.06852183
74	0x3b7e1a56	0.0038773022
75	0x3e3c28da	0.18374959
76	0xbe4cd0a2	-0.20001462
77	0x3ca33361	0.01992196
78	0x3d297d7e	0.041379444
79	0x3e34b8a9	0.17648567
80	0xbdd3087e	-0.10304354
81	0x3e3713e1	0.17878677
82	0x3d81489a	0.06312676
83	0x3e139dc4	0.14415652
84	0x3d67b0a4	0.056564942
85	0xbdb9b38a	-0.090674475
86	0xbe58fcd1	-0.21190192
87	0x3cb1d644	0.021708615
88	0xbe481346	-0.19538602
89	0x3dc3b84b	0.095566355
90	0x3dbe9518	0.09305781
91	0xbd964d84	-0.07339004
92	0x3d8c5136	0.06851427
93	0x3d4cbf31	0.04998702
94	0x3de56476	0.11200802
95	0xbd9f227f	-0.077702515
96	0xbe210d9b	-0.15727846
97	0x3b998208	0.0046846904
98	0xbc0484a9	-0.008088269
99	0x3d7d4043	0.061828863
100	0xbe28e4a9	-0.16493477
101	0x3cd595e7	0.026072456
102	0x3d65a144	0.056061998
103	0xbdaf6c3e	-0.085655674
104	0x3ea6ae26	0.3255474
105	0xbd9a0e66	-0.075222775
106	0xbd6cb806	-0.057792686
107	0x3d0b6af3	0.03403754
108	0x3e0f05e6	0.13967094
109	0xbde2ac66	-0.11068039
110	0x3dbe37f3	0.09288015
111	0x3cdf91c1	0.02729118
112	0xbd759a12	-0.059961386
113	0x3dc33b21	0.09532762
114	0xbe93fd01	-0.28903964
115	0x3d54ead9	0.05198178
116	0x3d3e0a80	0.046396732
117	0x3d6404f0	0.05566877
118	0xbdd5e4c4	-0.10444024
119	0x3e03800e	0.12841818
120	0x3cc21ff6	0.02369688
121	0xbd5d3e5b	-0.054014545
122	0x3dffbb89	0.12486941
123	0x3d44da94	0.048060015
124	0xbe89d525	-0.2692043
125	0x3d55b680	0.052176
126	0xbe375319	-0.17902793
127	0x3e8e996e	0.27851433
128	0x3dba5a66	0.090992734
129	0x3d19b092	0.037521906
130	0x3e2989ad	0.16556425
131	0x3d922114	0.071352154
132	0x3b70901b	0.0036706987
133	0x3d92e8c3	0.07173302
134	0x3e65a71c	0.22427028
135	0x3e3a546f	0.18196271
136	0x3d7274b8	0.059193343
137	0x3ccc8643	0.024966365
138	0xbe7971c4	-0.24359804
139	0x3db2061d	0.08692572
140	0x3e99d978	0.30048728
141	0x3dc34030	0.09533727
142	0xbd218968	-0.03943768
143	0xbda5535c	-0.0807254
144	0xbd3bac12	-0.045818396
145	0xbe7ec918	-0.24881399
146	0x3dca531c	0.09879133
147	0x3d359038	0.04432699
148	0x3deec2b9	0.11658234
149	0x3dd1562e	0.102215156
150	0x3b8fc387	0.0043873223
151	0x3e5f836e	0.2182748
152	0xbd95718e	-0.072970495
153	0x3e8ed570	0.27897215
154	0xbca1218e	-0.01966932
155	0xbc98c750	-0.018649727
156	0xbda44f95	-0.080229916
157	0xbdce807d	-0.10083101
158	0xbe3ff55f	-0.18745945
159	0xbe3df51d	-0.18550535
160	0xbd3f1c01	-0.046657566
161	0x3d16f9b9	0.036859248
162	0x3db0ec0d	0.08638773
163	0xbcf7ee88	-0.030265108
164	0x3dc53eff	0.09631156
165	0x3ef1b787	0.47210333
166	0x3dc6ddf9	0.09710307
167	0xbd34231a	-0.043978788
168	0x3d1a0466	0.03760185
169	0xbe401c5c	-0.18760818
170	0x3e609a77	0.21933924
171	0xbd9c6b68	-0.076376736
172	0x3e1d0f91	0.1533797
173	0x3e3d1ead	0.18468733
174	0x3dcc4c73	0.09975519
175	0x3df6a508	0.12043196
176	0x3e597a83	0.21238141
177	0x3e284e0a	0.1643602
178	0xbeb9eec6	-0.36314982
179	0xbd3b7451	-0.045765225
180	0xbddd2452	-0.10797943
181	0xbcd7eac8	-0.02635707
182	0xbdc5254f	-0.09626257
183	0xbe2fec7d	-0.17180057
184	0x3dc01389	0.09378726
185	0xbe0b7e8c	-0.13622493
186	0x3ec0e8fe	0.3767776
187	0x3c9bfc57	0.019041223
188	0xbe5f0f55	-0.21783192
189	0x3d7f9dd1	0.062406365
190	0x3ec3c9d8	0.38239932
191	0xbe1819d0	-0.14853597
192	0xbddd5095	-0.108063854
193	0x3db59fb3	0.08868351
194	0xbe589ec1	-0.2115431
195	0xbe1c6c2d	-0.15275641
196	0xbdc6a3a1	-0.096991785
197	0x3e4e6040	0.20153904
198	0xbdeb913a	-0.11502309
199	0x3d714961	0.05890787
200	0x3ddb37ae	0.107039794
201	0xbe4ae0ae	-0.19812271
202	0x3e254d4b	0.16142766
203	0xbe0939f2	-0.1340101
204	0x3e0d4b2d	0.13798209
205	0x3ddd6c1c	0.10811636
206	0x3d9e86bb	0.077405415
207	0xbe40516c	-0.1878106
208	0x3cbba52d	0.02290591
209	0x3e776fbf	0.24163722
210	0x3de08e4c	0.10964641
211	0xbe256f34	-0.16155702
212	0x3dd2bcd0	0.102899194
213	0x3d18cc60	0.037304282
214	0x3e1009f9	0.14066304
215	0xbcd3f7ef	-0.02587506
216	0x3d840b14	0.064474255
217	0x3d7f7ad4	0.062372997
218	0x3cb652bf	0.022256253
219	0x3e393cde	0.18089625
220	0x3d027200	0.031847
221	0xbcb711b3	-0.022347307
222	0xbe961b69	-0.29317787
223	0x3c25f6cf	0.010129645
224	0xbd2b4df6	-0.041822396
225	0x3df8f797	0.12156599
226	0x3d9b1505	0.075723685
227	0xbdab78e4	-0.083726674
228	0xbd85dc3f	-0.06536149
229	0xbe6e9bf7	-0.23301683
230	0xbe025b47	-0.12730132
231	0xbd44b3dc	-0.04802309
232	0x3d62f2a1	0.05540717
233	0xbdbe24c7	-0.092843585
234	0xbd29ac87	-0.0414243
235	0xbe84ed3e	-0.2596225
236	0x3c8f7f95	0.01751689
237	0xbd14358c	-0.03618388
238	0x3da9b038	0.08285564
239	0x3e093cd8	0.13402116
240	0xbde1d185	-0.11026291
241	0xbd17d3a4	-0.03706707
242	0xbdf4978b	-0.11942967
243	0xbdb4bc0b	-0.08824929
244	0xbd4edaf0	-0.050501764
245	0xbcf53b84	-0.029935606
246	0xbdd077b6	-0.10179083
247	0xbe4f0a98	-0.20218885
248	0xbd8662cd	-0.065618135
249	0x3e2f5b26	0.17124614
250	0xbe331f9f	-0.17492531
251	0xbddc6f16	-0.107633755
252	0xbd0c9b24	-0.03432764
253	0xbda76f16	-0.08175485
254	0x3e5b641d	0.21424909
255	0x3e3c3170	0.18378234

tcn_blocks.0.conv2.bias f4 [32]
0	0x00000000	0.0
1	0x00000000	0.0
2	0x00000000	0.0
3	0x00000000	0.0
4	0x00000000	0.0
5	0x00000000	0.0
6	0x00000000	0.0
7	0x00000000	0.0
8	0x00000000	0.0
9	0x00000000	0.0
10	0x00000000	0.0
11	0x00000000	0.0
12	0x00000000	0.0
13	0x00000000	0.0
14	0x00000000	0.0
15	0x00000000	0.0
16	0x00000000	0.0
17	0x00000000	0.0
18	0x00000000	0.0
19	0x00000000	0.0
20	0x00000000	0.0
21	0x00000000	0.0
22	0x00000000	0.0
23	0x00000000	0.0
24	0x00000000	0.0
25	0x00000000	0.0
26	0x00000000	0.0
27	0x00000000	0.0
28	0x00000000	0.0
29	0x00000000	0.0
30	0x00000000	0.0
31	0x00000000	0.0

tcn_blocks.0.bn2.weight f4 [32]
0	0x3f800000	1.0
1	0x3f800000	1.0
2	0x3f800000	1.0
3	0x3f800000	1.0
4	0x3f800000	1.0
5	0x3f800000	1.0
6	0x3f800000	1.0
7	0x3f800000	1.0
8	0x3f800000	1.0
9	0x3f800000	1.0
10	0x3f800000	1.0
11	0x3f800000	1.0
12	0x3f800000	1.0
13	0x3f800000	1.0
14	0x3f800000	1.0
15	0x3f800000	1.0
16	0x3f800000	1.0
17	0x3f800000	1.0
18	0x3f800000	1.0
19	0x3f800000	1.0
20	0x3f800000	1.0
21	0x3f800000	1.0
22	0x3f800000	1.0
23	0x3f800000	1.0
24	0x3f800000	1.0
25	0x3f800000	1.0
26	0x3f800000	1.0
27	0x3f800000	1.0
28	0x3f800000	1.0
29	0x3f800000	1.0
30	0x3f800000	1.0
31	0x3f800000	1.0

tcn_blocks.0.bn2.bias f4 [32]
0	0x00000000	0.0
1	0x00000000	0.0
2	0x00000000	0.0
3	0x00000000	0.0
4	0x00000000	0.0
5	0x00000000	0.0
6	0x00000000	0.0
7	0x00000000	0.0
8	0x00000000	0.0
9	0x00000000	0.0
10	0x00000000	0.0
11	0x00000000	0.0
12	0x00000000	0.0
13	0x00000000	0.0
14	0x00000000	0.0
15	0x00000000	0.0
16	0x00000000	0.0
17	0x00000000	0.0
18	0x00000000	0.0
19	0x00000000	0.0
20	0x00000000	0.0
21	0x00000000	0.0
22	0x00000000	0.0
23	0x00000000	0.0
24	0x00000000	0.0
25	0x00000000	0.0
26	0x00000000	0.0
27	0x00000000	0.0
28	0x00000000	0.0
29	0x00000000	0.0
30	0x00000000	0.0
31	0x00000000	0.0

tcn_blocks.0.bn2.running_mean f4 [32]
0	0x00000000	0.0
1	0x00000000	0.0
2	0x00000000	0.0
3	0x00000000	0.0
4	0x00000000	0.0
5	0x00000000	0.0
6	0x00000000	0.0
7	0x00000000	0.0
8	0x00000000	0.0
9	0x00000000	0.0
10	0x00000000	0.0
11	0x00000000	0.0
12	0x00000000	0.0
13	0x00000000	0.0
14	0x00000000	0.0
15	0x00000000	0.0
16	0x00000000	0.0
17	0x00000000	0.0
18	0x00000000	0.0
19	0x00000000	0.0
20	0x00000000	0.0
21	0x00000000	0.0
22	0x00000000	0.0
23	0x00000000	0.0
24	0x00000000	0.0
25	0x00000000	0.0
26	0x00000000	0.0
27	0x00000000	0.0
28	0x00000000	0.0
29	0x00000000	0.0
30	0x00000000	0.0
31	0x00000000	0.0

tcn_blocks.0.bn2.running_var f4 [32]
0	0x3f800000	1.0
1	0x3f800000	1.0
2	0x3f800000	1.0
3	0x3f800000	1.0
4	0x3f800000	1.0
5	0x3f800000	1.0
6	0x3f800000	1.0
7	0x3f800000	1.0
8	0x3f800000	1.0
9	0x3f800000	1.0
10	0x3f800000	1.0
11	0x3f800000	1.0
12	0x3f800000	1.0
13	0x3f800000	1.0
14	0x3f800000	1.0
15	0x3f800000	1.0
16	0x3f800000	1.0
17	0x3f800000	1.0
18	0x3f800000	1.0
19	0x3f800000	1.0
20	0x3f800000	1.0
21	0x3f800000	1.0
22	0x3f800000	1.0
23	0x3f800000	1.0
24	0x3f800000	1.0
25	0x3f800000	1.0
26	0x3f800000	1.0
27	0x3f800000	1.0
28	0x3f800000	1.0
29	0x3f800000	1.0
30	0x3f800000	1.0
31	0x3f800000	1.0

tcn_blocks.0.downsample.weight f4 [32, 64, 1]
0	0xbe8b87cf	-0.2725205
1	0xbe7674eb	-0.24068038
2	0x3f09bbdf	0.53802294
3	0xbd8ac745	-0.06776289
4	0x3de39764	0.1111286
5	0x3b65e56a	0.0035079368
6	0x3df6ad14	0.12044731
7	0xbb1cffa1	-0.0023956078
8	0xbdcddd9b	-0.100520335
9	0x3e79a96a	0.24381033
10	0x3dba6763	0.09101751
11	0x3db0affd	0.08627317
12	0xbd7bc80f	-0.061470088
13	0x3d2df18c	0.042466685
14	0x3d598399	0.053104017
15	0x3c87e5ab	0.016589006
16	0x3e49cde8	0.19707453
17	0x3e4f2074	0.20227224
18	0xbdbd6b88	-0.092490256
19	0x3c25b76c	0.010114532
20	0xbea722d6	-0.32643765
21	0x3f13d931	0.5775328
22	0x3e99fa83	0.30073938
23	0x3e4d4bb5	0.20048411
24	0x3d9aa31c	0.07550642
25	0xbccd179f	-0.025035677
26	0x3df86604	0.12128833
27	0xbe1184dc	-0.14210838
28	0x3e1691f5	0.14704116
29	0x3cdc6166	0.026901912
30	0xbee40844	-0.44537556
31	0x3e632533	0.22182159
32	0x3ed4e8ae	0.4158377
33	0x3e282118	0.16418874
34	0xbd96737a	-0.07346244
35	0x3d27241e	0.04080593
36	0xbe41b9c5	-0.18918522
37	0x3e2bc1b8	0.16773117
38	0xbeb51709	-0.35369137
39	0xbf14b152	-0.5808307
40	0x3e00d16b	0.12579887
41	0xbe4ede8e	-0.20202085
42	0xbd7b43bc	-0.061343893
43	0x3e0bddac	0.1365878
44	0x3e625085	0.22101028
45	0xbc2487c2	-0.010042133
46	0x3b91c91a	0.004449022
47	0xbcd04c79	-0.02542709
48	0xbeef185a	-0.46698266
49	0xbece6429	-0.4031079
50	0xbdbf24f2	-0.09333219
51	0xbddcc4f0	-0.1077975
52	0x3e7988c3	0.24368577
53	0xbe568787	-0.20950137
54	0x3d95e28f	0.07318603
55	0x3eac5e51	0.33665708
56	0xbec9cc15	-0.39413515
57	0xbea9f3c1	-0.33193782
58	0xbe832c4e	-0.2561974
59	0x3dec0816	0.1152498
60	0xbcd4ff20	-0.02600056
61	0x3e60540d	0.21907063
62	0xbee9befb	-0.4565352
63	0x3d25319b	0.04033051
64	0x3e6913b7	0.22761427
65	0xbd97f25f	-0.074192755
66	0xbe797036	-0.24359211
67	0xbe1fe30d	-0.15613957
68	0x3eca79fa	0.39546186
69	0xbe967354	-0.29384863
70	0xbcba7e4f	-0.022765307
71	0x3ea66671	0.32500032
72	0xbe90a3a1	-0.2824984
73	0x3e9cee94	0.3065077
74	0x3ef3b316	0.4759757
75	0xbe88632d	-0.26638165
76	0xbdb846a4	-0.08997849
77	0x3e8e6989	0.27814892
78	0x3e20f0eb	0.15716903
79	0xbeb85024	-0.35998642
80	0xbe07ac80	-0.13249397
81	0xbe473b7f	-0.1945629
82	0x3e5580ff	0.2084999
83	0x3daa8ebe	0.08328007
84	0x3ee185b3	0.44047317
85	0x3e401718	0.1875881
86	0xbe2c6fa2	-0.1683946
87	0xbde4cb2b	-0.11171564
88	0x3cc4ba4b	0.024014613
89	0x3e35a434	0.1773842
90	0xbdc56234	-0.096378714
91	0xbdd614b0	-0.104531646
92	0x3e2c07c5	0.16799839
93	0x3eb8647b	0.3601416
94	0x3da5aa15	0.08089081
95	0xbdae3dd3	-0.08507886
96	0x3e5b80cc	0.21435851
97	0x3a4ed3f8	0.0007889862
98	0xbe89be24	-0.26902878
99	0xbe11bc85	-0.1423207
100	0x3e8f62a4	0.28004944
101	0x3e2d15c6	0.16902837
102	0x3e0ef1fb	0.13959496
103	0x3eacb330	0.3373046
104	0x3f121c6d	0.57074624
105	0xbe5e16f4	-0.21688443
106	0x3e80e621	0.25175574
107	0x3e12ea7f	0.14347266
108	0x3c66b895	0.014082094
109	0xbd41f702	-0.047354706
110	0x3e90e675	0.28300825
111	0xbd98f7cd	-0.07469139
112	0x3e98fd57	0.29880783
113	0x3e065942	0.13119987
114	0xbe44ebfb	-0.19230644
115	0xbd05c9ad	-0.032663036
116	0x3f171e16	0.5903028
117	0x3cfb0fb7	0.030647142
118	0xbd891655	-0.066937126
119	0x3ea1b204	0.31581128
120	0xbc1a9715	-0.009435435
121	0x3f21181e	0.62927425
122	0x3d98b5b6	0.074565336
123	0xbe4d34d2	-0.2003968
124	0xbe30a831	-0.1725166
125	0xbea45256	-0.32094067
126	0xbe56df89	-0.2098371
127	0x3edba577	0.42899677
128	0x3cd304c3	0.025759107
129	0x3da62098	0.081116855
130	0xbe8cda01	-0.27510074
131	0x3e915b8a	0.2839015
132	0x3ea285c0	0.31742668
133	0x3d99cd2f	0.07509839
134	0xbe979549	-0.29606083
135	0xbe1ea5c3	-0.1549292
136	0xbe31b4df	-0.17354153
137	0x3eb968c6	0.36212748
138	0x3e29aa3a	0.16568843
139	0x3e7c6597	0.24648128
140	0xbe606e47	-0.21917067
141	0x3e0b466e	0.13601086
142	0x3e0aaa40	0.13541508
143	0x3e929e0c	0.28636205
144	0x3d64bb5a	0.055842735
145	0x3ece5f99	0.4030731
146	0xbd9caf19	-0.07650585
147	0x3df2b0fe	0.11850165
148	0x3e990b88	0.2989161
149	0xbe15020a	-0.14551559
150	0xbda90282	-0.082524315
151	0x3f397d25	0.7245658
152	0xbec7aa2d	-0.3899702
153	0xbc838f80	-0.016059637
154	0x3e052a6d	0.13004465
155	0xbe5f7643	-0.21822457
156	0x3e1b0b28	0.15140975
157	0xbe966f8b	-0.29381976
158	0x3ef1ae58	0.47203326
159	0x3e3dbcc1	0.18529035
160	0xbe2fe535	-0.1717728
161	0x3ea71863	0.32635793
162	0xbe7b0376	-0.24513039
163	0xbd54f90d	-0.051995326
164	0x3e969da0	0.29417133
165	0x3d7ac1ce	0.061219983
166	0x3cca8198	0.024719998
167	0x3e4e83da	0.20167485
168	0xbe3075b3	-0.17232399
169	0xbc776c13	-0.0151014505
170	0xbed23d89	-0.41062573
171	0xbe427771	-0.18990876
172	0x3d11c8d1	0.035591904
173	0xbe601fd3	-0.2188714
174	0x3ea05ddf	0.31321618
175	0x3e13dfd4	0.14440852
176	0xbf3a44b2	-0.7276107
177	0xbd40217c	-0.046906933
178	0xbe3dcc41	-0.18534948
179	0xbe406b6c	-0.18790978
180	0xbe652de3	-0.22380786
181	0xbe914770	-0.28374815
182	0x3ccc98d1	0.024975212
183	0x3f380381	0.71880347
184	0x3c7febdc	0.015620198
185	0xbedab076	-0.42712754
186	0xbe9df8d7	-0.30853912
187	0x3e0a2f4c	0.13494605
188	0xbe83e623	-0.25761518
189	0xbe626f17	-0.2211269
190	0x3cd96e7e	0.026541945
191	0x3e4729f6	0.194496
192	0x3ef33529	0.47501495
193	0x3e692365	0.22767408
194	0x3e6d17a8	0.23153555
195	0xbeec06c1	-0.46098903
196	0xbe856958	-0.26056933
197	0xbe64d2cc	-0.22346038
198	0xbdba463b	-0.09095427
199	0x3eada5df	0.33915612
200	0xbe6ce386	-0.23133668
201	0xbe10e8b9	-0.14151277
202	0xbd83a4a9	-0.06427891
203	0xbdafff2f	-0.08593594
204	0xbe2ace7d	-0.16680332
205	0xbe8dc3e0	-0.27688503
206	0xbce54c9b	-0.02799063
207	0x3ec234c9	0.37930897
208	0x3e51f8be	0.20505044
209	0x3e5382b0	0.20655322
210	0x3da4bc37	0.08043712
211	0x3dac6a75	0.084187426
212	0xbe8f4f70	-0.27990294
213	0xbcdccf45	-0.026954303
214	0x3eb04816	0.34429997
215	0x3df6dad2	0.120534554
216	0xbdc26c53	-0.094933175
217	0x3e7751fa	0.24152365
218	0xbeaee0a4	-0.34155762
219	0x3e63690a	0.22208038
220	0x3edf0c2d	0.43563977
221	0x3e5d6941	0.21622182
222	0x3e96d992	0.29462868
223	0xbe8e97c4	-0.27850163
224	0xbd39d4b7	-0.045368876
225	0xbd1b7633	-0.03795452
226	0x3dbe7425	0.092994966
227	0xbdb8d9d9	-0.09025926
228	0x3d84236c	0.06452069
229	0x3e54a815	0.20767243
230	0x3e3f6f56	0.18694815
231	0xbe568588	-0.20949376
232	0xbed6c4b2	-0.41946942
233	0x3ef898c9	0.48554066
234	0xbba02c73	-0.0048881113
235	0x3cab21bf	0.020890115
236	0xbda0e32f	-0.07855832
237	0x3e3f66d9	0.18691577
238	0x3d5eb006	0.054367088
239	0x3e115652	0.14193085
240	0x3e5c1e17	0.21495853
241	0xbea0a841	-0.31378368
242	0x3db8b5be	0.090190396
243	0xbe8c5606	-0.2740938
244	0xbd570132	-0.052491374
245	0xbebb23c3	-0.36550722
246	0x3e721f2d	0.23644705
247	0xbeb1728a	-0.346577
248	0x3eae67f7	0.34063694
249	0x3e187b5a	0.14890805
250	0x3db4bad3	0.088246964
251	0x3f3b5d57	0.731893
252	0x3e845d1f	0.25852296
253	0xbdde9a4a	-0.10869272
254	0x3dd0088c	0.1015788
255	0xbc545651	-0.012960033

tcn_blocks.0.downsample.bias f4 [32]
0	0x00000000	0.0
1	0x00000000	0.0
2	0x00000000	0.0
3	0x00000000	0.0
4	0x00000000	0.0
5	0x00000000	0.0
6	0x00000000	0.0
7	0x00000000	0.0
8	0x00000000	0.0
9	0x00000000	0.0
10	0x00000000	0.0
11	0x00000000	0.0
12	0x00000000	0.0
13	0x00000000	0.0
14	0x00000000	0.0
15	0x00000000	0.0
16	0x00000000	0.0
17	0x00000000	0.0
18	0x00000000	0.0
19	0x00000000	0.0
20	0x00000000	0.0
21	0x00000000	0.0
22	0x00000000	0.0
23	0x00000000	0.0
24	0x00000000	0.0
25	0x00000000	0.0
26	0x00000000	0.0
27	0x00000000	0.0
28	0x00000000	0.0
29	0x00000000	0.0
30	0x00000000	0.0
31	0x00000000	0.0

tcn_blocks.1.conv1.weight f4 [64, 32, 3]
0	0x3b18b4f6	0.002330122
1	0x3c541cd8	0.01294633
2	0xbd6910f3	-0.05690093
3	0xbdfa0c23	-0.12209346
4	0xbe4ceece	-0.20012972
5	0xbe377ba3	-0.17918257
6	0x3ce39112	0.027779136
7	0x3e358da0	0.17729807
8	0x3e23dc46	0.16001996
9	0xbd2a94d0	-0.041645825
10	0xbc7f7f7c	-0.0155943595
11	0xbdbc9e32	-0.09209861
12	0x3dc13c56	0.09435336
13	0x3e54a73c	0.2076692
14	0x3d28777f	0.041129585
15	0xbd6b9b21	-0.05752099
16	0xbe430a39	-0.19046868
17	0xbcb5bd7c	-0.02218508
18	0x3cacd233	0.021096325
19	0xbd6912c4	-0.056902662
20	0xbd5ee8c7	-0.054421213
21	0x3c952be3	0.018209403
22	0xbe22f9aa	-0.15915552
23	0x3ce69974	0.028149344
24	0x3c969e1d	0.018385941
25	0xbdda2b2d	-0.106527664
26	0x3c1eba99	0.009688043
27	0xbd5388ce	-0.05164414
28	0x3af4b39e	0.0018669253
29	0xbd8f1981	-0.06987286
30	0xbcf046fa	-0.02933072
31	0x3d99ad4f	0.07503759
32	0x3e2d81e7	0.16944085
33	0x3cff38fa	0.031155098
34	0xbdf9ecba	-0.12203355
35	0xbe138942	-0.14407828
36	0xbd8d223d	-0.06891296
37	0x3de9350f	0.11387073
38	0xba9871f8	-0.0011630645
39	0x3e3de5ca	0.18544689
40	0x3daa7b2c	0.083242744
41	0x3d5002e9	0.050784025
42	0x3e3853d6	0.18000731
43	0xbe0d75ba	-0.1381444
44	0x3d045446	0.032306932
45	0xbd71f8db	-0.059075218
46	0x3db273c4	0.08713487
47	0x3e332325	0.17493875
48	0x3e432568	0.19057238
49	0xbde394aa	-0.1111234
50	0x3c84ba3e	0.016202088
51	0xbe88d981	-0.26728442
52	0xbdacab2b	-0.08431085
53	0xbbb1cf65	-0.0054263347
54	0xbe139901	-0.14413835
55	0x3d6b1c5e	0.0574001
56	0x3e1992aa	0.14997354
57	0xbd63a8d0	-0.055580914
58	0xbda561a0	-0.08075261
59	0x3debb837	0.115097456
60	0x3c5d2b83	0.0134991435
61	0xbe361056	-0.17779669
62	0xbd7a65b8	-0.061132163
63	0x3e2f3a6b	0.17112128
64	0x3da4f3e6	0.080543324
65	0xbd876757	-0.066115074
66	0xbde293ac	-0.110633224
67	0xbd7b9651	-0.06142265
68	0x3e288096	0.16455302
69	0x3a348881	0.0006886796
70	0xbd52e2b8	-0.051485747
71	0xbd121575	-0.035664994
72	0xbe11cd6e	-0.14238521
73	0x3d84f027	0.06491118
74	0xbd0d3cb9	-0.034481738
75	0xbe36265e	-0.17788073
76	0x3d79a2b9	0.0609462
77	0x3e5a5ff1	0.21325661
78	0x3e585a9f	0.21128319
79	0x3d2529bd	0.040323008
80	0x3d2193d0	0.039447606
81	0xbd116eb9	-0.035505984
82	0x3a1ee484	0.0006061273
83	0x3dfdb5db	0.12388202
84	0xbd8670fa	-0.06564517
85	0x3d3f5b56	0.046717964
86	0xbde3c61d	-0.111217715
87	0x3cbdef23	0.023185318
88	0xbe3821fb	-0.17981713
89	0xbda08108	-0.07837111
90	0xbe23220c	-0.15930957
91	0xbdb32d5f	-0.08748888
92	0xbc91d99d	-0.017803961
93	0x3c8b5ceb	0.01701208
94	0x3db52687	0.08845239
95	0x3bea3136	0.0071469797
96	0xbde07bec	-0.10961136
97	0xbe129576	-0.14314827
98	0xbc630267	-0.013855553
99	0x3d90327b	0.070408784
100	0x3c1b75ae	0.009488506
101	0x3c757b6a	0.0149830375
102	0x3d6696a0	0.05629599
103	0xbdbe8c76	-0.093041345
104	0x3d942312	0.07233252
105	0x3e3e2259	0.1856779
106	0xbca3a752	-0.019977245
107	0xbde3f263	-0.11130216
108	0xba97151a	-0.0011526674
109	0xbe08933d	-0.13337417
110	0x3c5daf74	0.013530601
111	0xbca3f6a5	-0.02001507
112	0x3d7dce4b	0.061964314
113	0x3ae9fd6f	0.0017852018
114	0xbdea221c	-0.11432287
115	0xbcf72e21	-0.030173363
116	0x3cdff82f	0.027340023
117	0xbb0a2725	-0.002108046
118	0xbe2f459c	-0.17116398
119	0xbb65a4a0	-0.003504075
120	0x3d8f0328	0.06983024
121	0xbd20c7f4	-0.03925319
122	0x3dd066db	0.10175868
123	0x3e0376fc	0.12838358
124	0x3d1fedf6	0.039045297
125	0x3d66a0bb	0.05630563
126	0xbe3d5ad2	-0.18491676
127	0xbda31808	-0.07963568
128	0x3d5e74c7	0.054310586
129	0xbd4570bf	-0.048203226
130	0xbc16f302	-0.009213211
131	0x3d9adce5	0.075616635
132	0xbe10b058	-0.1412977
133	0xbca5995d	-0.02021473
134	0x3e08279a	0.13296357
135	0x3df0b8fe	0.117540345
136	0x3daa1372	0.0830449
137	0xbe020720	-0.1269803
138	0xbe0b34c3	-0.13594346
139	0xbdab5ea8	-0.083676636
140	0x3b1a102f	0.0023508181
141	0xbdc45936	-0.09587328
142	0xbd826667	-0.06367188
143	0x3d35fbb4	0.044429496
144	0x3de29442	0.11063434
145	0x3df6b27b	0.12045761
146	0x3d48ade2	0.048993953
147	0x3d1fe33e	0.039035074
148	0xbe12c02b	-0.14331119
149	0x3dde352e	0.10849987
150	0x3dc0260c	0.09382257
151	0xbe4c7c3b	-0.19969265
152	0x3e03c830	0.12869334
153	0xbcdbfff4	-0.026855446
154	0xbd0c6a71	-0.034281198
155	0xbe84bf86	-0.2592737
156	0xbd8e112d	-0.0693687
157	0x3da2649a	0.079293445
158	0x3ded3587	0.11582475
159	0x3da150f3	0.07876768
160	0xbdb7a63b	-0.08967253
161	0x3d4c8f93	0.04994161
162	0xbdd1d8cb	-0.10246428
163	0xbe208317	-0.15675007
164	0xbd18bc46	-0.037288927
165	0xbdbfa283	-0.093571685
166	0x3db6782e	0.08909641
167	0x3e2114c6	0.1573058
168	0x3e5f2bd8	0.21794069
169	0x3cacc6e2	0.021090928
170	0x3cda8b8f	0.026677875
171	0x3e0d2284	0.13782698
172	0x3e2eb68f	0.17061828
173	0x3cfb19e7	0.030652
174	0xbda57a3f	-0.08079957
175	0xbcdba114	-0.026810206
176	0x3d9d2679	0.07673354
177	0x3d800c80	0.06252384
178	0xbe0048c9	-0.12527765
179	0xbdc9c399	-0.098517604
180	0x3e0f7cb1	0.1401241
181	0xbdf94c13	-0.12172713
182	0xb9cd7fe8	-0.00039195945
183	0xbe209ac7	-0.15684043
184	0x3dfded8a	0.123988226
185	0xbe11f8bd	-0.14255042
186	0x3de0c9f6	0.10976021
187	0x3db32b12	0.087484494
188	0xbd1c470b	-0.03815369
189	0x3d26a8ee	0.040688448
190	0xbd84f90b	-0.06492814
191	0xbdadbd3d	-0.0848336
192	0xbe15cabe	-0.14628121
193	0x3da03c8b	0.07824048
194	0xba218990	-0.0006162161
195	0xbde0fc66	-0.10985641
196	0xbe5a895e	-0.21341464
197	0x3e99eb29	0.30062225
198	0xbdfbace6	-0.12288837
199	0x3db840ff	0.08996772
200	0xbdf48810	-0.11940014
201	0x3da16c01	0.07881928
202	0xbd8764f9	-0.06611056
203	0xbddb4d70	-0.107081294
204	0x3c5df5f2	0.013547407
205	0x3dfe4b57	0.12416714
206	0x3d20fb7b	0.03930233
207	0xbdf78a8f	-0.12086975
208	0x3e1c13b9	0.15241899
209	0xbe097f50	-0.13427472
210	0xbdbcb96c	-0.09215054
211	0xbc34ae37	-0.011027864
212	0xbd3f4955	-0.046700794
213	0x3e1de48c	0.15419215
214	0x3bc43e68	0.0059888847
215	0x3cc811c3	0.024422532
216	0xbd84cab5	-0.06483976
217	0xbdc983fe	-0.09839629
218	0x3c8f73fa	0.017511357
219	0xbd0b93e9	-0.034076605
220	0x3a429d57	0.0007423958
221	0xbe64e709	-0.22353758
222	0x3d1fadc6	0.038984083
223	0x3dad0143	0.08447506
224	0x3cd543e7	0.026033355
225	0x3cc34de2	0.023840848
226	0x3d855c07	0.065116934
227	0xbd50dcaf	-0.05099171
228	0x3d7e6c8a	0.06211523
229	0xbd455b8d	-0.048183013
230	0xbd1fe917	-0.03904065
231	0x3da39260	0.07986903
232	0x3cf828cb	0.03029289
233	0x3e5b3b0b	0.21409242
234	0xbe75afb7	-0.23992811
235	0xbd46c5f7	-0.048528638
236	0x3daf6202	0.085636154
237	0xbd2f7af7	-0.042841878
238	0x3e246697	0.1605476
239	0x3d848def	0.06472384
240	0x3dc12d9d	0.09432528
241	0x3e5c56da	0.21517506
242	0xbdb132b2	-0.086522475
243	0x3e1ac276	0.15113243
244	0xbd74ea52	-0.059793778
245	0x3e3a0bcc	0.18168563
246	0x3e1a1b49	0.15049471
247	0xbe46c11b	-0.19409601
248	0xbda0f51b	-0.0785925
249	0xbdbdc9f8	-0.09267038
250	0x3df3d0a8	0.119050324
251	0x3d12f538	0.03587839
252	0x3da84ffd	0.082183816
253	0xbe08edf4	-0.13372022
254	0xbccf3134	-0.025292017
255	0x3d33ffe1	0.043945197

tcn_blocks.1.conv1.bias f4 [64]
0	0x00000000	0.0
1	0x00000000	0.0
2	0x00000000	0.0
3	0x00000000	0.0
4	0x00000000	0.0
5	0x00000000	0.0
6	0x00000000	0.0
7	0x00000000	0.0
8	0x00000000	0.0
9	0x00000000	0.0
10	0x00000000	0.0
11	0x00000000	0.0
12	0x00000000	0.0
13	0x00000000	0.0
14	0x00000000	0.0
15	0x00000000	0.0
16	0x00000000	0.0
17	0x00000000	0.0
18	0x00000000	0.0
19	0x00000000	0.0
20	0x00000000	0.0
21	0x00000000	0.0
22	0x00000000	0.0
23	0x00000000	0.0
24	0x00000000	0.0
25	0x00000000	0.0
26	0x00000000	0.0
27	0x00000000	0.0
28	0x00000000	0.0
29	0x00000000	0.0
30	0x00000000	0.0
31	0x00000000	0.0
32	0x00000000	0.0
33	0x00000000	0.0
34	0x00000000	0.0
35	0x00000000	0.0
36	0x00000000	0.0
37	0x00000000	0.0
38	0x00000000	0.0
39	0x00000000	0.0
40	0x00000000	0.0
41	0x00000000	0.0
42	0x00000000	0.0
43	0x00000000	0.0
44	0x00000000	0.0
45	0x00000000	0.0
46	0x00000000	0.0
47	0x00000000	0.0
48	0x00000000	0.0
49	0x00000000	0.0
50	0x00000000	0.0
51	0x00000000	0.0
52	0x00000000	0.0
53	0x00000000	0.0
54	0x00000000	0.0
55	0x00000000	0.0
56	0x00000000	0.0
57	0x00000000	0.0
58	0x00000000	0.0
59	0x00000000	0.0
60	0x00000000	0.0
61	0x00000000	0.0
62	0x00000000	0.0
63	0x00000000	0.0

tcn_blocks.1.bn1.weight f4 [64]
0	0x3f800000	1.0
1	0x3f800000	1.0
2	0x3f800000	1.0
3	0x3f800000	1.0
4	0x3f800000	1.0
5	0x3f800000	1.0
6	0x3f800000	1.0
7	0x3f800000	1.0
8	0x3f800000	1.0
9	0x3f800000	1.0
10	0x3f800000	1.0
11	0x3f800000	1.0
12	0x3f800000	1.0
13	0x3f800000	1.0
14	0x3f800000	1.0
15	0x3f800000	1.0
16	0x3f800000	1.0
17	0x3f800000	1.0
18	0x3f800000	1.0
19	0x3f800000	1.0
20	0x3f800000	1.0
21	0x3f800000	1.0
22	0x3f800000	1.0
23	0x3f800000	1.0
24	0x3f800000	1.0
25	0x3f800000	1.0
26	0x3f800000	1.0
27	0x3f800000	1.0
28	0x3f800000	1.0
29	0x3f800000	1.0
30	0x3f800000	1.0
31	0x3f800000	1.0
32	0x3f800000	1.0
33	0x3f800000	1.0
34	0x3f800000	1.0
35	0x3f800000	1.0
36	0x3f800000	1.0
37	0x3f800000	1.0
38	0x3f800000	1.0
39	0x3f800000	1.0
40	0x3f800000	1.0
41	0x3f800000	1.0
42	0x3f800000	1.0
43	0x3f800000	1.0
44	0x3f800000	1.0
45	0x3f800000	1.0
46	0x3f800000	1.0
47	0x3f800000	1.0
48	0x3f800000	1.0
49	0x3f800000	1.0
50	0x3f800000	1.0
51	0x3f800000	1.0
52	0x3f800000	1.0
53	0x3f800000	1.0
54	0x3f800000	1.0
55	0x3f800000	1.0
56	0x3f800000	1.0
57	0x3f800000	1.0
58	0x3f800000	1.0
59	0x3f800000	1.0
60	0x3f800000	1.0
61	0x3f800000	1.0
62	0x3f800000	1.0
63	0x3f800000	1.0

tcn_blocks.1.bn1.bias f4 [64]
0	0x00000000	0.0
1	0x00000000	0.0
2	0x00000000	0.0
3	0x00000000	0.0
4	0x00000000	0.0
5	0x00000000	0.0
6	0x00000000	0.0
7	0x00000000	0.0
8	0x00000000	0.0
9	0x00000000	0.0
10	0x00000000	0.0
11	0x00000000	0.0
12	0x00000000	0.0
13	0x00000000	0.0
14	0x00000000	0.0
15	0x00000000	0.0
16	0x00000000	0.0
17	0x00000000	0.0
18	0x00000000	0.0
19	0x00000000	0.0
20	0x00000000	0.0
21	0x00000000	0.0
22	0x00000000	0.0
23	0x00000000	0.0
24	0x00000000	0.0
25	0x00000000	0.0
26	0x00000000	0.0
27	0x00000000	0.0
28	0x00000000	0.0
29	0x00000000	0.0
30	0x00000000	0.0
31	0x00000000	0.0
32	0x00000000	0.0
33	0x00000000	0.0
34	0x00000000	0.0
35	0x00000000	0.0
36	0x00000000	0.0
37	0x00000000	0.0
38	0x00000000	0.0
39	0x00000000	0.0
40	0x00000000	0.0
41	0x00000000	0.0
42	0x00000000	0.0
43	0x00000000	0.0
44	0x00000000	0.0
45	0x00000000	0.0
46	0x00000000	0.0
47	0x00000000	0.0
48	0x00000000	0.0
49	0x00000000	0.0
50	0x00000000	0.0
51	0x00000000	0.0
52	0x00000000	0.0
53	0x00000000	0.0
54	0x00000000	0.0
55	0x00000000	0.0
56	0x00000000	0.0
57	0x00000000	0.0
58	0x00000000	0.0
59	0x00000000	0.0
60	0x00000000	0.0
61	0x00000000	0.0
62	0x00000000	0.0
63	0x00000000	0.0

tcn_blocks.1.bn1.running_mean f4 [64]
0	0x00000000	0.0
1	0x00000000	0.0
2	0x00000000	0.0
3	0x00000000	0.0
4	0x00000000	0.0
5	0x00000000	0.0
6	0x00000000	0.0
7	0x00000000	0.0
8	0x00000000	0.0
9	0x00000000	0.0
10	0x00000000	0.0
11	0x00000000	0.0
12	0x00000000	0.0
13	0x00000000	0.0
14	0x00000000	0.0
15	0x00000000	0.0
16	0x00000000	0.0
17	0x00000000	0.0
18	0x00000000	0.0
19	0x00000000	0.0
20	0x00000000	0.0
21	0x00000000	0.0
22	0x00000000	0.0
23	0x00000000	0.0
24	0x00000000	0.0
25	0x00000000	0.0
26	0x00000000	0.0
27	0x00000000	0.0
28	0x00000000	0.0
29	0x00000000	0.0
30	0x00000000	0.0
31	0x00000000	0.0
32	0x00000000	0.0
33	0x00000000	0.0
34	0x00000000	0.0
35	0x00000000	0.0
36	0x00000000	0.0
37	0x00000000	0.0
38	0x00000000	0.0
39	0x00000000	0.0
40	0x00000000	0.0
41	0x00000000	0.0
42	0x00000000	0.0
43	0x00000000	0.0
44	0x00000000	0.0
45	0x00000000	0.0
46	0x00000000	0.0
47	0x00000000	0.0
48	0x00000000	0.0
49	0x00000000	0.0
50	0x00000000	0.0
51	0x00000000	0.0
52	0x00000000	0.0
53	0x00000000	0.0
54	0x00000000	0.0
55	0x00000000	0.0
56	0x00000000	0.0
57	0x00000000	0.0
58	0x00000000	0.0
59	0x00000000	0.0
60	0x00000000	0.0
61	0x00000000	0.0
62	0x00000000	0.0
63	0x00000000	0.0

tcn_blocks.1.bn1.running_var f4 [64]
0	0x3f800000	1.0
1	0x3f800000	1.0
2	0x3f800000	1.0
3	0x3f800000	1.0
4	0x3f800000	1.0
5	0x3f800000	1.0
6	0x3f800000	1.0
7	0x3f800000	1.0
8	0x3f800000	1.0
9	0x3f800000	1.0
10	0x3f800000	1.0
11	0x3f800000	1.0
12	0x3f800000	1.0
13	0x3f800000	1.0
14	0x3f800000	1.0
15	0x3f800000	1.0
16	0x3f800000	1.0
17	0x3f800000	1.0
18	0x3f800000	1.0
19	0x3f800000	1.0
20	0x3f800000	1.0
21	0x3f800000	1.0
22	0x3f800000	1.0
23	0x3f800000	1.0
24	0x3f800000	1.0
25	0x3f800000	1.0
26	0x3f800000	1.0
27	0x3f800000	1.0
28	0x3f800000	1.0
29	0x3f800000	1.0
30	0x3f800000	1.0
31	0x3f800000	1.0
32	0x3f800000	1.0
33	0x3f800000	1.0
34	0x3f800000	1.0
35	0x3f800000	1.0
36	0x3f800000	1.0
37	0x3f800000	1.0
38	0x3f800000	1.0
39	0x3f800000	1.0
40	0x3f800000	1.0
41	0x3f800000	1.0
42	0x3f800000	1.0
43	0x3f800000	1.0
44	0x3f800000	1.0
45	0x3f800000	1.0
46	0x3f800000	1.0
47	0x3f800000	1.0
48	0x3f800000	1.0
49	0x3f800000	1.0
50	0x3f800000	1.0
51	0x3f800000	1.0
52	0x3f800000	1.0
53	0x3f800000	1.0
54	0x3f800000	1.0
55	0x3f800000	1.0
56	0x3f800000	1.0
57	0x3f800000	1.0
58	0x3f800000	1.0
59	0x3f800000	1.0
60	0x3f800000	1.0
61	0x3f800000	1.0
62	0x3f800000	1.0
63	0x3f800000	1.0

tcn_blocks.1.conv2.weight f4 [64, 64, 3]
0	0x3e5fc3f9	0.21852101
1	0xbc50c14e	-0.0127414
2	0x3d9b9e53	0.07598557
3	0x3ddd9d37	0.10821002
4	0xbca91986	-0.020642053
5	0xbcf1ce86	-0.029517423
6	0x3dd5a17e	0.10431193
7	0xbd7587e8	-0.059944063
8	0x3d47e409	0.048801456
9	0xbe0bc38b	-0.13648812
10	0xbd5e12a5	-0.054217
11	0xbcbc2a43	-0.02296937
12	0x3e7a157b	0.24422257
13	0xbca4bb65	-0.020108888
14	0x3defc617	0.117077045
15	0xbdfeb69d	-0.124371745
16	0xbd9a6b75	-0.07540027
17	0x3e366059	0.17810191
18	0xbd650019	-0.055908296
19	0xbe3fb2ab	-0.187205
20	0x3b7fd2ba	0.0039035515
21	0xbe00e25f	-0.12586354
22	0xbdeeb512	-0.1165563
23	0x3dbdc4bb	0.09266039
24	0x3d48ff14	0.049071386
25	0x3b29cd1a	0.0025909604
26	0xbe0d58b7	-0.13803373
27	0x3dfe6858	0.12422246
28	0x3e26127e	0.16217992
29	0xbdcfedce	-0.101527795
30	0xbde076c8	-0.10960156
31	0x3d2704cb	0.040776055
32	0x3d3aa22c	0.045564815
33	0x3e08a9b6	0.1334599
34	0x3db0bf25	0.08630208
35	0xbdbbf418	-0.091774166
36	0x3d72457a	0.05914829
37	0xbe149e2e	-0.14513466
38	0x3d8dc467	0.069222264
39	0xbe203dd3	-0.15648584
40	0x3b91cf3e	0.004449754
41	0x3dbb7a89	0.09154231
42	0xbd7ccb96	-0.061717592
43	0x3d600c61	0.054699305
44	0xbda36ca8	-0.07979709
45	0x3e007783	0.1254559
46	0xbe516a27	-0.2045065
47	0x3d053d0e	0.03252893
48	0xbdd9e6a9	-0.10639698
49	0xbde22e8c	-0.11044034
50	0xbc84e886	-0.016224157
51	0xba57447d	-0.00082118047
52	0xbdf0a421	-0.11750055
53	0x3e1a1b8b	0.1504957
54	0x3e2f02ed	0.1709096
55	0xbd438d23	-0.04774202
56	0x3d84c0d2	0.0648209
57	0xbe08f5b4	-0.13374978
58	0xbc15bc6b	-0.009139161
59	0xbdade1a7	-0.084903054
60	0xbd4dd755	-0.050254185
61	0xbdd9ff97	-0.10644453
62	0xbda1484c	-0.07875118
63	0x3de7c8fe	0.11317633
64	0x3cd8c718	0.026462123
65	0xbd2dea9b	-0.042460065
66	0x3e571154	0.21002704
67	0x3cef5f0f	0.029220132
68	0x3daca4e2	0.084298864
69	0xbd27a467	-0.04092827
70	0xbcd6c57f	-0.02621722
71	0x3e45a36f	0.19300626
72	0xbdca664c	-0.09882793
73	0xbdea1308	-0.11429411
74	0xbd951976	-0.07280247
75	0xbd38dd02	-0.045132644
76	0x3c8a7bd9	0.016904758
77	0xbe51d1c2	-0.20490173
78	0x3c9f9ee0	0.019484937
79	0x3dc736c6	0.09727244
80	0x3d200224	0.03906454
81	0xbdd6b664	-0.10484007
82	0x3e2bb209	0.16767134
83	0x3d184bc5	0.037181634
84	0xbdd56561	-0.10419727
85	0xbdf8badf	-0.12145018
86	0x3e4131fb	0.18866722
87	0x3e0ec5b7	0.1394261
88	0xbe145d25	-0.14488657
89	0xbe1fe13b	-0.15613262
90	0x3d057ae1	0.03258789
91	0x3a7ff1db	0.00097635173
92	0x3e0865e8	0.13320124
93	0x3d4efbf6	0.050533257
94	0xbd94aef9	-0.07259936
95	0x3d4cb7e7	0.04998007
96	0xbe15c283	-0.14624982
97	0x3c837c84	0.016050585
98	0x3c9de5b5	0.019274572
99	0x3d200427	0.03906646
100	0x3d2ecee2	0.042677768
101	0x3ccbb173	0.024864888
102	0xbe17a7f2	-0.1481016
103	0xbd1155f2	-0.035482354
104	0x3e1c5cc6	0.15269765
105	0x3b62f794	0.0034632431
106	0xbda306c6	-0.07960276
107	0xbde2d7a6	-0.11076288
108	0x3dc7f9b6	0.097644255
109	0xbda319f4	-0.079639345
110	0xbe18ed96	-0.14934382
111	0xbdb2cc11	-0.08730329
112	0xbdb6da57	-0.08928364
113	0x3d571bf0	0.052516878
114	0x3d4db346	0.050219797
115	0xbd0404e0	-0.03223121
116	0xbdaa2229	-0.08307297
117	0xbd52bce9	-0.05144969
118	0xbd8df157	-0.069307975
119	0x3de20670	0.11036384
120	0x3d920373	0.07129564
121	0xbd8f5c9b	-0.07000085
122	0x3ca5f4ed	0.020258391
123	0x3db2d1ab	0.08731397
124	0xbd19c7cc	-0.037544057
125	0x3d6fb414	0.058521345
126	0x3dc05bbe	0.093924984
127	0x3c583b53	0.013197738
128	0x3e14c174	0.14526922
129	0x3de140e5	0.10998706
130	0x3cbf440f	0.023347883
131	0xbd83e48f	-0.064400785
132	0x3c74458b	0.014909158
133	0x3c89fccf	0.016844181
134	0x3e4855bf	0.1956396
135	0xbd0629c5	-0.03275468
136	0xbdab3f19	-0.08361644
137	0x3e27dfc2	0.1639395
138	0xbd399d61	-0.045316104
139	0xbbcb2d54	-0.006200472
140	0x3e00e39b	0.12586825
141	0x3e1af6a0	0.15133142
142	0x3d54ad8b	0.051923316
143	0xbda2a583	-0.07941725
144	0xbd9533e0	-0.07285285
145	0xbc4c1f2e	-0.012458606
146	0xbe3baffd	-0.18328853
147	0xbc04a4e7	-0.008095956
148	0xbd00a69f	-0.031408902
149	0x3dce9ea6	0.100888535
150	0xbd91237f	-0.070868485
151	0xbdb8c631	-0.09022177
152	0x3b762a48	0.0037561823
153	0x3e014d7e	0.12627217
154	0x3cfb75ce	0.030695822
155	0xbd0bf468	-0.03416863
156	0x3d0aef45	0.03391959
157	0xbe1a3f23	-0.15063147
158	0x3bfc7c98	0.0077052824
159	0x3cfc2079	0.030777203
160	0x3bcb0953	0.00619618
161	0x3e4ca782	0.19985774
162	0x3e0f1d2a	0.13975969
163	0x3e2a37d0	0.16622853
164	0x3e7fc6f0	0.24978232
165	0xbd59f3ef	-0.05321115
166	0xbca34975	-0.019932488
167	0xbe2107b6	-0.15725598
168	0xbe440828	-0.19143736
169	0x3c9cd6d9	0.019145416
170	0xbdde4319	-0.108526416
171	0x3d80753d	0.062723614
172	0xbe2b35b8	-0.16719711
173	0xbd221984	-0.039575115
174	0xbce9e78a	-0.02855279
175	0xbded9e98	-0.11602515
176	0x3cbda338	0.023149118
177	0x3cc880d2	0.024475489
178	0xbdbd1720	-0.09232926
179	0xbd3cda20	-0.046106458
180	0x3d868b8a	0.06569584
181	0x3d424d51	0.047437016
182	0x3d1d78dd	0.038445342
183	0x3cde3d75	0.027128914
184	0xbcd2cf84	-0.025733717
185	0xbd4d3e44	-0.05010821
186	0xbe619bdf	-0.22032116
187	0x3d914e9b	0.07095071
188	0x3d5316d7	0.051535454
189	0x3e03cde4	0.1287151
190	0x3ca48d62	0.020086948
191	0x3def4457	0.11682957
192	0x3d51dc4a	0.051235475
193	0x3c3f3f56	0.011672815
194	0xbc214479	-0.009842985
195	0xbdef6769	-0.11689646
196	0xbcd4ea61	-0.025990667
197	0xbd9b5228	-0.075840294
198	0x3ddc4ce8	0.10756856
199	0xbde2be93	-0.110715054
200	0x3e108b7f	0.14115714
201	0x3cb91735	0.022594074
202	0x3d67d0f5	0.05659576
203	0x3d7bfdc7	0.061521318
204	0x3d5a4ca0	0.05329573
205	0x3d614e57	0.05500635
206	0xbe17e154	-0.1483205
207	0x3d4ca9fd	0.0499668
208	0x3d805520	0.06266236
209	0xbd4b08f5	-0.04956909
210	0xbd0b1488	-0.033955127
211	0xbcca2d73	-0.024679875
212	0x3e1198af	0.142184
213	0xbdb69079	-0.08914275
214	0x3d3aee74	0.045637563
215	0xbd4a7d0b	-0.049435657
216	0x3dc1786f	0.09446799
217	0x37e2e415	2.7047508e-05
218	0x3e44052a	0.19142595
219	0xbdbded7b	-0.092738114
220	0x3d1d46a2	0.03839744
221	0xbb04386a	-0.0020175227
222	0xbce1f3fb	-0.02758216
223	0x3da96cd0	0.082727075
224	0xbdea55d0	-0.11442149
225	0x3c8071b2	0.015679214
226	0xbc2d9f9e	-0.010597138
227	0x3bc51dae	0.006015501
228	0x3cce6f49	0.02519955
229	0x3d790c5e	0.06080281
230	0x3c12534e	0.008930994
231	0x3d0a3b60	0.03374803
232	0xbd70d052	-0.05879242
233	0xbcf75dd6	-0.030196112
234	0xbd8e3eb5	-0.06945554
235	0xbd1cb6ac	-0.038260147
236	0xbdcd0338	-0.100103796
237	0xbd312bdd	-0.043254722
238	0x3d3061fd	0.0430622
239	0xbe3c6384	-0.18397337
240	0x3e721a0d	0.2364275
241	0xbdde919a	-0.10867615
242	0x3d8b218f	0.0679351
243	0x3da581f4	0.08081427
244	0x3d43ae9a	0.047773935
245	0x3d485c3e	0.048916094
246	0x3db0bd1b	0.08629819
247	0x3bc991ea	0.0061514275
248	0xbd6052f1	-0.0547666
249	0xbd8fdd15	-0.0702459
250	0x3d474bf4	0.04865642
251	0x3b4a7489	0.0030892214
252	0x3d391d4b	0.04519395
253	0x3dcdc662	0.10047604
254	0xbd987809	-0.0744477
255	0x3da6a381	0.08136655

tcn_blocks.1.conv2.bias f4 [64]
0	0x00000000	0.0
1	0x00000000	0.0
2	0x00000000	0.0
3	0x00000000	0.0
4	0x00000000	0.0
5	0x00000000	0.0
6	0x00000000	0.0
7	0x00000000	0.0
8	0x00000000	0.0
9	0x00000000	0.0
10	0x00000000	0.0
11	0x00000000	0.0
12	0x00000000	0.0
13	0x00000000	0.0
14	0x00000000	0.0
15	0x00000000	0.0
16	0x00000000	0.0
17	0x00000000	0.0
18	0x00000000	0.0
19	0x00000000	0.0
20	0x00000000	0.0
21	0x00000000	0.0
22	0x00000000	0.0
23	0x00000000	0.0
24	0x00000000	0.0
25	0x00000000	0.0
26	0x00000000	0.0
27	0x00000000	0.0
28	0x00000000	0.0
29	0x00000000	0.0
30	0x00000000	0.0
31	0x00000000	0.0
32	0x00000000	0.0
33	0x00000000	0.0
34	0x00000000	0.0
35	0x00000000	0.0
36	0x00000000	0.0
37	0x00000000	0.0
38	0x00000000	0.0
39	0x00000000	0.0
40	0x00000000	0.0
41	0x00000000	0.0
42	0x00000000	0.0
43	0x00000000	0.0
44	0x00000000	0.0
45	0x00000000	0.0
46	0x00000000	0.0
47	0x00000000	0.0
48	0x00000000	0.0
49	0x00000000	0.0
50	0x00000000	0.0
51	0x00000000	0.0
52	0x00000000	0.0
53	0x00000000	0.0
54	0x00000000	0.0
55	0x00000000	0.0
56	0x00000000	0.0
57	0x00000000	0.0
58	0x00000000	0.0
59	0x00000000	0.0
60	0x00000000	0.0
61	0x00000000	0.0
62	0x00000000	0.0
63	0x00000000	0.0

tcn_blocks.1.bn2.weight f4 [64]
0	0x3f800000	1.0
1	0x3f800000	1.0
2	0x3f800000	1.0
3	0x3f800000	1.0
4	0x3f800000	1.0
5	0x3f800000	1.0
6	0x3f800000	1.0
7	0x3f800000	1.0
8	0x3f800000	1.0
9	0x3f800000	1.0
10	0x3f800000	1.0
11	0x3f800000	1.0
12	0x3f800000	1.0
13	0x3f800000	1.0
14	0x3f800000	1.0
15	0x3f800000	1.0
16	0x3f800000	1.0
17	0x3f800000	1.0
18	0x3f800000	1.0
19	0x3f800000	1.0
20	0x3f800000	1.0
21	0x3f800000	1.0
22	0x3f800000	1.0
23	0x3f800000	1.0
24	0x3f800000	1.0
25	0x3f800000	1.0
26	0x3f800000	1.0
27	0x3f800000	1.0
28	0x3f800000	1.0
29	0x3f800000	1.0
30	0x3f800000	1.0
31	0x3f800000	1.0
32	0x3f800000	1.0
33	0x3f800000	1.0
34	0x3f800000	1.0
35	0x3f800000	1.0
36	0x3f800000	1.0
37	0x3f800000	1.0
38	0x3f800000	1.0
39	0x3f800000	1.0
40	0x3f800000	1.0
41	0x3f800000	1.0
42	0x3f800000	1.0
43	0x3f800000	1.0
44	0x3f800000	1.0
45	0x3f800000	1.0
46	0x3f800000	1.0
47	0x3f800000	1.0
48	0x3f800000	1.0
49	0x3f800000	1.0
50	0x3f800000	1.0
51	0x3f800000	1.0
52	0x3f800000	1.0
53	0x3f800000	1.0
54	0x3f800000	1.0
55	0x3f800000	1.0
56	0x3f800000	1.0
57	0x3f800000	1.0
58	0x3f800000	1.0
59	0x3f800000	1.0
60	0x3f800000	1.0
61	0x3f800000	1.0
62	0x3f800000	1.0
63	0x3f800000	1.0
